…
e_pr.weight', 'roi_heads.box_predictor.cls_score_pr.bias', 'roi_heads.box_predictor.conv_cor.weight', 'roi_heads.box_predictor.cls_score_cor.weight', 'roi_heads.box_predictor.cls_score_cor.bias', 'roi_heads.box_predictor.fc_1.weight', 'roi_heads.box_predictor.fc_1.bias', 'roi_heads.box_predictor.fc_2.weight', 'roi_heads.box_predictor.fc_2.bias', 'roi_heads.box_predictor.cls_score_fc.weight', 'roi_heads.box_predictor.cls_score_fc.bias']===============frozen at  2
===============freezing stage  1
[02/14 00:02:35 d2.engine.defaults]: Model:
FsodRCNN(
  (backbone): pvt_v2_b2_li(
    (branch_embed1): Embedding(2, 64)
    (patch_embed1): OverlapPatchEmbed(
      (proj): Conv2d(3, 64, kernel_size=(7, 7), stride=(4, 4), padding=(3, 3))
      (norm): LayerNorm((64,), eps=1e-05, elementwise_affine=True)
    )
    (block1): ModuleList(
      (0): Block(
        (norm1): LayerNorm((64,), eps=1e-06, elementwise_affine=True)
        (attn): Attention(
          (q): Linear(in_features=64, out_features=64, bias=True)
          (kv): Linear(in_features=64, out_features=128, bias=True)
          (attn_drop): Dropout(p=0.0, inplace=False)
          (proj): Linear(in_features=64, out_features=64, bias=True)
          (proj_drop): Dropout(p=0.0, inplace=False)
          (pool): AdaptiveAvgPool2d(output_size=7)
          (sr): Conv2d(64, 64, kernel_size=(1, 1), stride=(1, 1))
          (norm): LayerNorm((64,), eps=1e-05, elementwise_affine=True)
          (act): GELU(approximate='none')
        )
        (drop_path): Identity()
        (norm2): LayerNorm((64,), eps=1e-06, elementwise_affine=True)
        (mlp): Mlp(
          (fc1): Linear(in_features=64, out_features=512, bias=True)
          (dwconv): DWConv(
            (dwconv): Conv2d(512, 512, kernel_size=(3, 3), stride=(1, 1), padding=(1, 1), groups=512)
          )
          (act): GELU(approximate='none')
          (fc2): Linear(in_features=512, out_features=64, bias=True)
          (drop): Dropout(p=0.0, inplace=False)
          (relu): ReLU(inplace=True)
        )
      )
      (1-2): 2 x Block(
        (norm1): LayerNorm((64,), eps=1e-06, elementwise_affine=True)
        (attn): Attention(
          (q): Linear(in_features=64, out_features=64, bias=True)
          (kv): Linear(in_features=64, out_features=128, bias=True)
          (attn_drop): Dropout(p=0.0, inplace=False)
          (proj): Linear(in_features=64, out_features=64, bias=True)
          (proj_drop): Dropout(p=0.0, inplace=False)
          (pool): AdaptiveAvgPool2d(output_size=7)
          (sr): Conv2d(64, 64, kernel_size=(1, 1), stride=(1, 1))
          (norm): LayerNorm((64,), eps=1e-05, elementwise_affine=True)
          (act): GELU(approximate='none')
        )
        (drop_path): DropPath()
        (norm2): LayerNorm((64,), eps=1e-06, elementwise_affine=True)
        (mlp): Mlp(
          (fc1): Linear(in_features=64, out_features=512, bias=True)
          (dwconv): DWConv(
            (dwconv): Conv2d(512, 512, kernel_size=(3, 3), stride=(1, 1), padding=(1, 1), groups=512)
          )
          (act): GELU(approximate='none')
          (fc2): Linear(in_features=512, out_features=64, bias=True)
          (drop): Dropout(p=0.0, inplace=False)
          (relu): ReLU(inplace=True)
        )
      )
    )
    (norm1): LayerNorm((64,), eps=1e-06, elementwise_affine=True)
    (branch_embed2): Embedding(2, 128)
    (patch_embed2): OverlapPatchEmbed(
      (proj): Conv2d(64, 128, kernel_size=(3, 3), stride=(2, 2), padding=(1, 1))
      (norm): LayerNorm((128,), eps=1e-05, elementwise_affine=True)
    )
    (block2): ModuleList(
      (0-3): 4 x Block(
        (norm1): LayerNorm((128,), eps=1e-06, elementwise_affine=True)
        (attn): Attention(
          (q): Linear(in_features=128, out_features=128, bias=True)
          (kv): Linear(in_features=128, out_features=256, bias=True)
          (attn_drop): Dropout(p=0.0, inplace=False)
          (proj): Linear(in_features=128, out_features=128, bias=True)
          (proj_drop): Dropout(p=0.0, inplace=False)
          (pool): AdaptiveAvgPool2d(output_size=7)
          (sr): Conv2d(128, 128, kernel_size=(1, 1), stride=(1, 1))
          (norm): LayerNorm((128,), eps=1e-05, elementwise_affine=True)
          (act): GELU(approximate='none')
        )
        (drop_path): DropPath()
        (norm2): LayerNorm((128,), eps=1e-06, elementwise_affine=True)
        (mlp): Mlp(
          (fc1): Linear(in_features=128, out_features=1024, bias=True)
          (dwconv): DWConv(
            (dwconv): Conv2d(1024, 1024, kernel_size=(3, 3), stride=(1, 1), padding=(1, 1), groups=1024)
          )
          (act): GELU(approximate='none')
          (fc2): Linear(in_features=1024, out_features=128, bias=True)
          (drop): Dropout(p=0.0, inplace=False)
          (relu): ReLU(inplace=True)
        )
      )
    )
    (norm2): LayerNorm((128,), eps=1e-06, elementwise_affine=True)
    (branch_embed3): Embedding(2, 320)
    (patch_embed3): OverlapPatchEmbed(
      (proj): Conv2d(128, 320, kernel_size=(3, 3), stride=(2, 2), padding=(1, 1))
      (norm): LayerNorm((320,), eps=1e-05, elementwise_affine=True)
    )
    (block3): ModuleList(
      (0-5): 6 x Block(
        (norm1): LayerNorm((320,), eps=1e-06, elementwise_affine=True)
        (attn): Attention(
          (q): Linear(in_features=320, out_features=320, bias=True)
          (kv): Linear(in_features=320, out_features=640, bias=True)
          (attn_drop): Dropout(p=0.0, inplace=False)
          (proj): Linear(in_features=320, out_features=320, bias=True)
          (proj_drop): Dropout(p=0.0, inplace=False)
          (pool): AdaptiveAvgPool2d(output_size=7)
          (sr): Conv2d(320, 320, kernel_size=(1, 1), stride=(1, 1))
          (norm): LayerNorm((320,), eps=1e-05, elementwise_affine=True)
          (act): GELU(approximate='none')
        )
        (drop_path): DropPath()
        (norm2): LayerNorm((320,), eps=1e-06, elementwise_affine=True)
        (mlp): Mlp(
          (fc1): Linear(in_features=320, out_features=1280, bias=True)
          (dwconv): DWConv(
            (dwconv): Conv2d(1280, 1280, kernel_size=(3, 3), stride=(1, 1), padding=(1, 1), groups=1280)
          )
          (act): GELU(approximate='none')
          (fc2): Linear(in_features=1280, out_features=320, bias=True)
          (drop): Dropout(p=0.0, inplace=False)
          (relu): ReLU(inplace=True)
        )
      )
    )
    (norm3): LayerNorm((320,), eps=1e-06, elementwise_affine=True)
  )
  (proposal_generator): FsodRPN(
    (rpn_head): StandardRPNHead(
      (conv): Conv2d(320, 320, kernel_size=(3, 3), stride=(1, 1), padding=(1, 1))
      (objectness_logits): Conv2d(320, 15, kernel_size=(1, 1), stride=(1, 1))
      (anchor_deltas): Conv2d(320, 60, kernel_size=(1, 1), stride=(1, 1))
    )
    (anchor_generator): DefaultAnchorGenerator(
      (cell_anchors): BufferList()
    )
  )
  (roi_heads): FsodRes5ROIHeads(
    (pooler): ROIPooler(
      (level_poolers): ModuleList(
        (0): ROIAlign(output_size=(14, 14), spatial_scale=0.0625, sampling_ratio=0, aligned=True)
      )
    )
    (branch_embed4): Embedding(2, 512)
    (patch_embed4): OverlapPatchEmbed(
      (proj): Conv2d(320, 512, kernel_size=(3, 3), stride=(2, 2), padding=(1, 1))
      (norm): LayerNorm((512,), eps=1e-05, elementwise_affine=True)
    )
    (block4): ModuleList(
      (0-2): 3 x Block(
        (norm1): LayerNorm((512,), eps=1e-06, elementwise_affine=True)
        (attn): Attention(
          (q): Linear(in_features=512, out_features=512, bias=True)
          (kv): Linear(in_features=512, out_features=1024, bias=True)
          (attn_drop): Dropout(p=0.0, inplace=False)
          (proj): Linear(in_features=512, out_features=512, bias=True)
          (proj_drop): Dropout(p=0.0, inplace=False)
          (pool): AdaptiveAvgPool2d(output_size=7)
          (sr): Conv2d(512, 512, kernel_size=(1, 1), stride=(1, 1))
          (norm): LayerNorm((512,), eps=1e-05, elementwise_affine=True)
          (act): GELU(approximate='none')
        )
        (drop_path): DropPath()
        (norm2): LayerNorm((512,), eps=1e-06, elementwise_affine=True)
        (mlp): Mlp(
          (fc1): Linear(in_features=512, out_features=2048, bias=True)
          (dwconv): DWConv(
            (dwconv): Conv2d(2048, 2048, kernel_size=(3, 3), stride=(1, 1), padding=(1, 1), groups=2048)
          )
          (act): GELU(approximate='none')
          (fc2): Linear(in_features=2048, out_features=512, bias=True)
          (drop): Dropout(p=0.0, inplace=False)
          (relu): ReLU(inplace=True)
        )
      )
    )
    (norm4): LayerNorm((512,), eps=1e-06, elementwise_affine=True)
    (box_predictor): FsodFastRCNNOutputLayers(
      (conv_1): Conv2d(1024, 128, kernel_size=(1, 1), stride=(1, 1), bias=False)
      (conv_2): Conv2d(128, 128, kernel_size=(3, 3), stride=(1, 1), bias=False)
      (conv_3): Conv2d(128, 512, kernel_size=(1, 1), stride=(1, 1), bias=False)
      (bbox_pred_pr): Linear(in_features=512, out_features=4, bias=True)
      (cls_score_pr): Linear(in_features=512, out_features=2, bias=True)
      (conv_cor): Conv2d(512, 512, kernel_size=(1, 1), stride=(1, 1), bias=False)
      (cls_score_cor): Linear(in_features=512, out_features=2, bias=True)
      (fc_1): Linear(in_features=1024, out_features=512, bias=True)
      (fc_2): Linear(in_features=512, out_features=512, bias=True)
      (cls_score_fc): Linear(in_features=512, out_features=2, bias=True)
      (avgpool): AvgPool2d(kernel_size=3, stride=1, padding=0)
      (avgpool_fc): AvgPool2d(kernel_size=7, stride=7, padding=0)
    )
  )
)
['backbone.branch_embed1.weight', 'backbone.branch_embed2.weight', 'backbone.patch_embed2.proj.weight', 'backbone.patch_embed2.proj.bias', 'backbone.patch_embed2.norm.weight', 'backbone.patch_embed2.norm.bias', 'bac
…
