…
fc1.weight', 'roi_heads.block4.2.mlp.fc1.bias', 'roi_heads.block4.2.mlp.dwconv.dwconv.weight', 'roi_heads.block4.2.mlp.dwconv.dwconv.bias', 'roi_heads.block4.2.mlp.fc2.weight', 'roi_heads.block4.2.mlp.fc2.bias', 'roi_heads.norm4.weight', 'roi_heads.norm4.bias', 'roi_heads.box_predictor.cls_score.weight', 'roi_heads.box_predictor.cls_score.bias', 'roi_heads.box_predictor.bbox_pred.weight', 'roi_heads.box_predictor.bbox_pred.bias']===============frozen at  1
[02/13 19:20:25 d2.engine.defaults]: Model:
GeneralizedRCNN(
  (backbone): pvt_v2_b2_li(
    (patch_embed1): OverlapPatchEmbed(
      (proj): Conv2d(3, 64, kernel_size=(7, 7), stride=(4, 4), padding=(3, 3))
      (norm): LayerNorm((64,), eps=1e-05, elementwise_affine=True)
    )
    (block1): ModuleList(
      (0): Block(
        (norm1): LayerNorm((64,), eps=1e-06, elementwise_affine=True)
        (attn): Attention(
          (q): Linear(in_features=64, out_features=64, bias=True)
          (kv): Linear(in_features=64, out_features=128, bias=True)
          (attn_drop): Dropout(p=0.0, inplace=False)
          (proj): Linear(in_features=64, out_features=64, bias=True)
          (proj_drop): Dropout(p=0.0, inplace=False)
          (pool): AdaptiveAvgPool2d(output_size=7)
          (sr): Conv2d(64, 64, kernel_size=(1, 1), stride=(1, 1))
          (norm): LayerNorm((64,), eps=1e-05, elementwise_affine=True)
          (act): GELU(approximate='none')
        )
        (drop_path): Identity()
        (norm2): LayerNorm((64,), eps=1e-06, elementwise_affine=True)
        (mlp): Mlp(
          (fc1): Linear(in_features=64, out_features=512, bias=True)
          (dwconv): DWConv(
            (dwconv): Conv2d(512, 512, kernel_size=(3, 3), stride=(1, 1), padding=(1, 1), groups=512)
          )
          (act): GELU(approximate='none')
          (fc2): Linear(in_features=512, out_features=64, bias=True)
          (drop): Dropout(p=0.0, inplace=False)
          (relu): ReLU(inplace=True)
        )
      )
      (1-2): 2 x Block(
        (norm1): LayerNorm((64,), eps=1e-06, elementwise_affine=True)
        (attn): Attention(
          (q): Linear(in_features=64, out_features=64, bias=True)
          (kv): Linear(in_features=64, out_features=128, bias=True)
          (attn_drop): Dropout(p=0.0, inplace=False)
          (proj): Linear(in_features=64, out_features=64, bias=True)
          (proj_drop): Dropout(p=0.0, inplace=False)
          (pool): AdaptiveAvgPool2d(output_size=7)
          (sr): Conv2d(64, 64, kernel_size=(1, 1), stride=(1, 1))
          (norm): LayerNorm((64,), eps=1e-05, elementwise_affine=True)
          (act): GELU(approximate='none')
        )
        (drop_path): DropPath()
        (norm2): LayerNorm((64,), eps=1e-06, elementwise_affine=True)
        (mlp): Mlp(
          (fc1): Linear(in_features=64, out_features=512, bias=True)
          (dwconv): DWConv(
            (dwconv): Conv2d(512, 512, kernel_size=(3, 3), stride=(1, 1), padding=(1, 1), groups=512)
          )
          (act): GELU(approximate='none')
          (fc2): Linear(in_features=512, out_features=64, bias=True)
          (drop): Dropout(p=0.0, inplace=False)
          (relu): ReLU(inplace=True)
        )
      )
    )
    (norm1): LayerNorm((64,), eps=1e-06, elementwise_affine=True)
    (patch_embed2): OverlapPatchEmbed(
      (proj): Conv2d(64, 128, kernel_size=(3, 3), stride=(2, 2), padding=(1, 1))
      (norm): LayerNorm((128,), eps=1e-05, elementwise_affine=True)
    )
    (block2): ModuleList(
      (0-3): 4 x Block(
        (norm1): LayerNorm((128,), eps=1e-06, elementwise_affine=True)
        (attn): Attention(
          (q): Linear(in_features=128, out_features=128, bias=True)
          (kv): Linear(in_features=128, out_features=256, bias=True)
          (attn_drop): Dropout(p=0.0, inplace=False)
          (proj): Linear(in_features=128, out_features=128, bias=True)
          (proj_drop): Dropout(p=0.0, inplace=False)
          (pool): AdaptiveAvgPool2d(output_size=7)
          (sr): Conv2d(128, 128, kernel_size=(1, 1), stride=(1, 1))
          (norm): LayerNorm((128,), eps=1e-05, elementwise_affine=True)
          (act): GELU(approximate='none')
        )
        (drop_path): DropPath()
        (norm2): LayerNorm((128,), eps=1e-06, elementwise_affine=True)
        (mlp): Mlp(
          (fc1): Linear(in_features=128, out_features=1024, bias=True)
          (dwconv): DWConv(
            (dwconv): Conv2d(1024, 1024, kernel_size=(3, 3), stride=(1, 1), padding=(1, 1), groups=1024)
          )
          (act): GELU(approximate='none')
          (fc2): Linear(in_features=1024, out_features=128, bias=True)
          (drop): Dropout(p=0.0, inplace=False)
          (relu): ReLU(inplace=True)
        )
      )
    )
    (norm2): LayerNorm((128,), eps=1e-06, elementwise_affine=True)
    (patch_embed3): OverlapPatchEmbed(
      (proj): Conv2d(128, 320, kernel_size=(3, 3), stride=(2, 2), padding=(1, 1))
      (norm): LayerNorm((320,), eps=1e-05, elementwise_affine=True)
    )
    (block3): ModuleList(
      (0-5): 6 x Block(
        (norm1): LayerNorm((320,), eps=1e-06, elementwise_affine=True)
        (attn): Attention(
          (q): Linear(in_features=320, out_features=320, bias=True)
          (kv): Linear(in_features=320, out_features=640, bias=True)
          (attn_drop): Dropout(p=0.0, inplace=False)
          (proj): Linear(in_features=320, out_features=320, bias=True)
          (proj_drop): Dropout(p=0.0, inplace=False)
          (pool): AdaptiveAvgPool2d(output_size=7)
          (sr): Conv2d(320, 320, kernel_size=(1, 1), stride=(1, 1))
          (norm): LayerNorm((320,), eps=1e-05, elementwise_affine=True)
          (act): GELU(approximate='none')
        )
        (drop_path): DropPath()
        (norm2): LayerNorm((320,), eps=1e-06, elementwise_affine=True)
        (mlp): Mlp(
          (fc1): Linear(in_features=320, out_features=1280, bias=True)
          (dwconv): DWConv(
            (dwconv): Conv2d(1280, 1280, kernel_size=(3, 3), stride=(1, 1), padding=(1, 1), groups=1280)
          )
          (act): GELU(approximate='none')
          (fc2): Linear(in_features=1280, out_features=320, bias=True)
          (drop): Dropout(p=0.0, inplace=False)
          (relu): ReLU(inplace=True)
        )
      )
    )
    (norm3): LayerNorm((320,), eps=1e-06, elementwise_affine=True)
  )
  (proposal_generator): RPN(
    (rpn_head): StandardRPNHead(
      (conv): Conv2d(
        320, 320, kernel_size=(3, 3), stride=(1, 1), padding=(1, 1)
        (activation): ReLU()
      )
      (objectness_logits): Conv2d(320, 15, kernel_size=(1, 1), stride=(1, 1))
      (anchor_deltas): Conv2d(320, 60, kernel_size=(1, 1), stride=(1, 1))
    )
    (anchor_generator): DefaultAnchorGenerator(
      (cell_anchors): BufferList()
    )
  )
  (roi_heads): PVTROIHeads(
    (pooler): ROIPooler(
      (level_poolers): ModuleList(
        (0): ROIAlign(output_size=(14, 14), spatial_scale=0.0625, sampling_ratio=0, aligned=True)
      )
    )
    (patch_embed4): OverlapPatchEmbed(
      (proj): Conv2d(320, 512, kernel_size=(3, 3), stride=(2, 2), padding=(1, 1))
      (norm): LayerNorm((512,), eps=1e-05, elementwise_affine=True)
    )
    (block4): ModuleList(
      (0-2): 3 x Block(
        (norm1): LayerNorm((512,), eps=1e-06, elementwise_affine=True)
        (attn): Attention(
          (q): Linear(in_features=512, out_features=512, bias=True)
          (kv): Linear(in_features=512, out_features=1024, bias=True)
          (attn_drop): Dropout(p=0.0, inplace=False)
          (proj): Linear(in_features=512, out_features=512, bias=True)
          (proj_drop): Dropout(p=0.0, inplace=False)
          (pool): AdaptiveAvgPool2d(output_size=7)
          (sr): Conv2d(512, 512, kernel_size=(1, 1), stride=(1, 1))
          (norm): LayerNorm((512,), eps=1e-05, elementwise_affine=True)
          (act): GELU(approximate='none')
        )
        (drop_path): DropPath()
        (norm2): LayerNorm((512,), eps=1e-06, elementwise_affine=True)
        (mlp): Mlp(
          (fc1): Linear(in_features=512, out_features=2048, bias=True)
          (dwconv): DWConv(
            (dwconv): Conv2d(2048, 2048, kernel_size=(3, 3), stride=(1, 1), padding=(1, 1), groups=2048)
          )
          (act): GELU(approximate='none')
          (fc2): Linear(in_features=2048, out_features=512, bias=True)
          (drop): Dropout(p=0.0, inplace=False)
          (relu): ReLU(inplace=True)
        )
      )
    )
    (norm4): LayerNorm((512,), eps=1e-06, elementwise_affine=True)
    (box_predictor): FastRCNNOutputLayers(
      (cls_score): Linear(in_features=512, out_features=81, bias=True)
      (bbox_pred): Linear(in_features=512, out_features=320, bias=True)
    )
  )
)
['backbone.patch_embed1.proj.weight', 'backbone.patch_embed1.proj.bias', 'backbone.patch_embed1.norm.weight', 'backbone.patch_embed1.norm.bias', 'backbone.block1.0.norm1.weight', 'backbone.block1.0.norm1.bias', 'backbone.block1.0.attn.q.weight', 'backbone.block1.0.attn.q.bias', 'backbone.block1.0.attn.kv.weight', 'backbone.block1.0.attn.kv.
…
